weights/Final2_STN_model.pth (torch_old, 202775 bytes, 8 tensors)

localization.0.weight f4 [25, 3, 3, 3]
0	0xbd7bb345	-0.06145026
1	0x3dd7dc60	0.1054008
2	0x3cbf326a	0.023339469
3	0x3e7fe6b6	0.24990353
4	0xbe687e42	-0.22704414
5	0xbc96d880	-0.018413782
6	0xbe1b2e4a	-0.15154377
7	0xbe065b94	-0.13120872
8	0x3e4e42b4	0.20142633
9	0xbd90c730	-0.07069242
10	0x3d786112	0.06063945
11	0xbd1e9e10	-0.03872496
12	0xb990e17e	-0.00027633825
13	0xbe33f306	-0.17573175
14	0x3d6222d8	0.05520901
15	0x3dc456bd	0.095868565
16	0xbd136c84	-0.03599216
17	0xbda0c635	-0.07850305
18	0xbe372189	-0.17883886
19	0xbcc7ecf5	-0.024404982
20	0x3d9e1d61	0.07720447
21	0x3e32d240	0.17463017
22	0xbe98ca1b	-0.29841694
23	0xbd9ede50	-0.077572465
24	0x3d82b4bf	0.06382131
25	0x3c95ffc3	0.018310433
26	0x3c3a87ba	0.011384899
27	0x3dc744d0	0.09729922
28	0x3df7c55a	0.12098189
29	0x3dcfe040	0.10150194
30	0xbe1884ce	-0.14894411
31	0x3d9def15	0.07711617
32	0x3b16b89d	0.0022998222
33	0xbdd015e2	-0.10160424
34	0xbe165495	-0.14680703
35	0xbe2836b4	-0.16427118
36	0xbd0d891e	-0.034554593
37	0x3b6f6f50	0.0036534853
38	0x3e2e1beb	0.17002837
39	0xbe8d4753	-0.2759348
40	0xbd113d4e	-0.035458855
41	0x3d7de562	0.061986335
42	0xbe1a5968	-0.15073168
43	0x3cc27993	0.023739612
44	0x3d9b94e7	0.0759676
45	0x3e1783dc	0.14796394
46	0xbd116442	-0.035496004
47	0x3e4f23a2	0.20228437
48	0x3bc7705f	0.0060863937
49	0x3c284737	0.010270885
50	0x3de30cfa	0.110864595
51	0xbeb64f3f	-0.35607335
52	0x3c2e48b3	0.01063745
53	0xbd9c8695	-0.07642857
54	0x3dc99e66	0.09844665
55	0x3ce4fabb	0.027951589
56	0x3d1da1aa	0.038484253
57	0x3dd8a949	0.105791636
58	0xbce30389	-0.027711647
59	0xbdd57a6a	-0.10423739
60	0xbce232d1	-0.027612122
61	0xbe348dc3	-0.17632203
62	0xbe39b7ce	-0.18136522
63	0xbd9c2691	-0.076245435
64	0x3e417dd8	0.18895662
65	0x3e12b0e7	0.14325295
66	0x3d7b8526	0.061406277
67	0xbe0319c0	-0.12802792
68	0xbd43a0d8	-0.047760814
69	0x3d903b44	0.07042554
70	0xbdc37d7b	-0.09545418
71	0x3e00f800	0.12594604
72	0x3e85bda8	0.2612126
73	0xbb911aab	-0.004428228
74	0xbe248c41	-0.16069128
75	0x3e3e1d72	0.1856592
76	0x3cff9a57	0.031201525
77	0xbe1f854b	-0.15578191
78	0x3d21c0fa	0.039490677
79	0xbdbb97b1	-0.09159792
80	0xbde10e55	-0.10989062
81	0x3d20cc09	0.039257083
82	0x3cb2af26	0.021812033
83	0x3d4973fa	0.04918287
84	0x3dd31701	0.10307122
85	0x3d3133cc	0.043262288
86	0x3dd92c67	0.10604172
87	0xbe20bde7	-0.15697442
88	0x3d5a8051	0.05334503
89	0xbe95c032	-0.29248196
90	0xbe2dd65e	-0.16976306
91	0x3e2096ad	0.15682478
92	0x3c7c9ecf	0.015418722
93	0xbe0e208c	-0.13879603
94	0xbe0bb8ac	-0.13644665
95	0x3b66b04b	0.0035200294
96	0x3e1e5f93	0.15466146
97	0xbc8a3816	-0.016872447
98	0x38eab12f	0.000111909925
99	0x3d75bdbd	0.0599954
100	0xbd74bd51	-0.05975086
101	0x3d1794e3	0.037007224
102	0x3c778d18	0.015109323
103	0x3c93509d	0.017982775
104	0xbd1ecadb	-0.038767677
105	0x3e1673d5	0.14692624
106	0x3dc8db0f	0.09807407
107	0xbd8278ee	-0.06370722
108	0xbe29f662	-0.16597894
109	0x3e188295	0.14893563
110	0xbe102828	-0.14077818
111	0xbd9c5f7e	-0.07635401
112	0xbbc7d003	-0.006097795
113	0x3e05237a	0.13001814
114	0x3d4a3fc5	0.04937722
115	0xbdba62b1	-0.09100855
116	0x3d7ac65c	0.061224326
117	0x3e22bd49	0.15892519
118	0x3d05acdd	0.03263556
119	0xbd8b6dcc	-0.068080515
120	0xbe1b2ef1	-0.15154625
121	0xbd8c407e	-0.068482384
122	0x3d4af44c	0.049549386
123	0xbc792b85	-0.01520813
124	0x3aeea8d4	0.0018208274
125	0xbc9e352c	-0.019312464
126	0x3e95da1d	0.2926797
127	0x3dd5482b	0.104141556
128	0xbe0dbe67	-0.13842164
129	0x3cc4be74	0.024016596
130	0xbd9f1cd2	-0.07769169
131	0xbcd4a3d3	-0.025957024
132	0xbe126848	-0.14297593
133	0xbcb9e481	-0.022691967
134	0xbb861d2b	-0.0040928326
135	0xbe0dc0b4	-0.13843042
136	0x3e035b1d	0.12827726
137	0xbcc4755f	-0.023981748
138	0x3d4d2c46	0.05009105
139	0x3c34e52f	0.01104097
140	0xbd9a839c	-0.07544634
141	0x3dbae2e8	0.0912531
142	0xbc8dd35f	-0.017312704
143	0xbd8427e6	-0.064529225
144	0xbd4b3dce	-0.04961949
145	0x3d1fb9a5	0.038995404
146	0xbd0e5bbf	-0.034755465
147	0x3d72a225	0.059236664
148	0xbcc9aab6	-0.024617534
149	0xbc0254f8	-0.007954828
150	0x3c8054d5	0.015665451
151	0xbde5c6eb	-0.11219581
152	0x3d9f4176	0.077761576
153	0x3e410d7c	0.188528
154	0x3ccabccd	0.02474823
155	0xbe0234fb	-0.12715523
156	0xbdca60f8	-0.098817766
157	0x3d8c0064	0.06836012
158	0x3bff9174	0.007799322
159	0xbddf7c6b	-0.10912403
160	0xbe0207a8	-0.12698233
161	0x3e2caf50	0.16863751
162	0xbdb4f775	-0.08836261
163	0x3d9060c3	0.07049706
164	0x3dd20f98	0.102568805
165	0x3de0bceb	0.10973533
166	0xbdec8375	-0.11548511
167	0xbe3bf90b	-0.18356721
168	0xbe324b06	-0.17411432
169	0x3bc147e4	0.0058984626
170	0xbce1d5d3	-0.02756778
171	0xbd68d856	-0.05684694
172	0x3b2e8723	0.002663084
173	0x3d049572	0.032369085
174	0x3dc1afa1	0.09457327
175	0x3e1b0ab9	0.15140809
176	0x3e0ca705	0.13735588
177	0x3e15e6cf	0.14638828
178	0xbc6b8852	-0.014375763
179	0x3e089766	0.13339004
180	0xbc99279c	-0.018695645
181	0x3db05f4c	0.086119264
182	0xbd96642e	-0.073433265
183	0xbbf826ba	-0.007572976
184	0xbd2a4f37	-0.04157945
185	0xbddbb085	-0.10727028
186	0xbd2d6da3	-0.042340886
187	0x3e04ed6b	0.12981193
188	0x3d19496e	0.037423544
189	0x3da8b46b	0.08237537
190	0x3dcdfc5e	0.10057901
191	0xbd4bbb78	-0.04973933
192	0x3e5e46f1	0.2170675
193	0xbddc3095	-0.10751454
194	0xbb898933	-0.0041972636
195	0x3c4a0b9b	0.0123318685
196	0xbdfdc4e4	-0.123910695
197	0xbe2e16e9	-0.17000927
198	0xbdf72095	-0.120667614
199	0x3d94cc17	0.072654895
200	0x3d4c1f6c	0.049834654
201	0x3e69e836	0.22842488
202	0x3e0e6206	0.1390458
203	0xbdcf9e9b	-0.101376735
204	0xbaedc19e	-0.0018139367
205	0xbe33687c	-0.17520326
206	0xbd6589cf	-0.056039628
207	0xbca1e7a3	-0.019763773
208	0x3da35782	0.07975675
209	0x3e0f416f	0.13989805
210	0x3d8a9cc2	0.067681804
211	0xbdd3f0e8	-0.103486836
212	0x3cc5b166	0.024132442
213	0x3de861a4	0.113467485
214	0xbe2f0833	-0.17092972
215	0xbdbd6b22	-0.092489496
216	0xbd9bdb62	-0.07610203
217	0xbe22c1f9	-0.15894307
218	0x3cdf02d8	0.027223036
219	0xbe23e1b6	-0.1600407
220	0x3db4a55e	0.08820604
221	0x3e64f5c6	0.2235938
222	0x3d480cf7	0.04884049
223	0x3d9d9562	0.07694508
224	0xbdde539d	-0.10855792
225	0xbcc0743d	-0.023492927
226	0x3bf1c4c2	0.0073781917
227	0xbd84d051	-0.06485046
228	0xbcc8768d	-0.024470592
229	0xbd96db35	-0.07366029
230	0xbd557f78	-0.052123517
231	0x3c71799f	0.014738469
232	0xb9266a40	-0.00015870575
233	0x3dd22289	0.10260493
234	0x3e7d3a07	0.24729167
235	0x3e040bbc	0.12895101
236	0xbe5fb60d	-0.2184679
237	0xbe806a1e	-0.2508096
238	0x3cb05476	0.02152465
239	0x3e0851c9	0.13312449
240	0xbc0fafd9	-0.008769953
241	0x3a2832a8	0.000641624
242	0xbd07cade	-0.033152454
243	0x3d3c1e13	0.04592712
244	0xbc9a64b8	-0.018846855
245	0x3e022af0	0.12711692
246	0xbdc7ce5c	-0.09756157
247	0xbd5449fb	-0.051828366
248	0xbc3f6bd0	-0.011683419
249	0x3dd9ad28	0.1062873
250	0xbe2cdf4d	-0.16882057
251	0x3bade43c	0.0053067487
252	0xbd30cb93	-0.043162894
253	0x3de7bfae	0.11315857
254	0xbd28ef28	-0.041243702
255	0xbc8efdf6	-0.017455082

localization.0.bias f4 [25]
0	0xbef3e580	-0.47636032
1	0xbee0a314	-0.4387442
2	0xbf055c6a	-0.5209414
3	0xbecdc6aa	-0.4019063
4	0xbea302d8	-0.31838107
5	0xbed41478	-0.41421866
6	0xbe9f5a78	-0.3112371
7	0xbd618a7e	-0.055063717
8	0xbec26d9f	-0.3797426
9	0xbea54155	-0.32276407
10	0xbebe077a	-0.3711508
11	0xbee6d364	-0.45083153
12	0xbec8e7cc	-0.39239347
13	0xbddbdfc7	-0.107360415
14	0xbc2df94f	-0.010618522
15	0xbe98eee8	-0.2986977
16	0xbeecc1fe	-0.46241754
17	0xbe7554a1	-0.23958065
18	0xbe83676b	-0.2566484
19	0xbebfe7bb	-0.37481484
20	0xbed619d1	-0.4181657
21	0xbd1dc819	-0.038520906
22	0xbed86d92	-0.42271096
23	0xbeebc1b1	-0.46046212
24	0xbd1c53b6	-0.03816577

localization.3.weight f4 [25, 25, 5, 5]
0	0xbcd841eb	-0.02639862
1	0x3ccbb8a6	0.02486832
2	0x3ca55870	0.020183772
3	0xbbf332e9	-0.0074218404
4	0xbd38fd44	-0.045163408
5	0xbcc1c81c	-0.02365499
6	0x3c606c3e	0.013697682
7	0xbbfe2c6b	-0.00775676
8	0xbc3119e6	-0.010809397
9	0xbcb8b9ab	-0.02254947
10	0x3b5d6a89	0.0033785424
11	0xbd580906	-0.05274298
12	0xbc9b3c23	-0.018949574
13	0xbcfb8bbd	-0.03070628
14	0x3c2ae893	0.010431427
15	0xbc3ce31d	-0.011528757
16	0xbc53a088	-0.012916692
17	0xbbbad265	-0.0057013505
18	0x3c7f38aa	0.015577475
19	0x3c55bdfc	0.013045784
20	0xbc3c8c23	-0.011508021
21	0xbc576af7	-0.013148061
22	0xbc43b26f	-0.011944397
23	0xbc0b392e	-0.008497519
24	0xbc9bd3ac	-0.019021831
25	0xbc1d5ff8	-0.0096054
26	0x3c0b37c5	0.008497183
27	0xbc8e2879	-0.017353283
28	0xbcde204c	-0.02711501
29	0xbcc103e2	-0.023561422
30	0xbb457d7b	-0.0030134607
31	0xbcda2a27	-0.026631428
32	0xbc4c2f63	-0.01246247
33	0xbd0c6ece	-0.03428536
34	0x3d4abb97	0.049495306
35	0xbd1c0900	-0.03809452
36	0xbc6bf561	-0.014401765
37	0xbd44dc48	-0.04806164
38	0xbd1004fd	-0.035161007
39	0xbcf27efb	-0.029601565
40	0xbd4c9d3a	-0.04995463
41	0xbcdcbdc7	-0.026945962
42	0xbc14a480	-0.009072423
43	0xbd20ea57	-0.039285984
44	0xbcd93970	-0.026516646
45	0xbabb4239	-0.0014286704
46	0xbc0b13d7	-0.008488617
47	0xbce21f1d	-0.027602727
48	0x3bd14f50	0.0063876286
49	0x3c191a59	0.009344661
50	0xbcd65b55	-0.026166597
51	0x3cae9412	0.02131084
52	0x3c2429c0	0.01001972
53	0xbb852f01	-0.004064441
54	0x3b98112c	0.004640719
55	0x3b7f37ca	0.0038943165
56	0x3ba1e8f7	0.0049411017
57	0x3ca90f45	0.020637164
58	0xbb91d1ec	-0.0044500735
59	0xbb804117	-0.0039140093
60	0xbd4e676d	-0.050391603
61	0x3c760920	0.015016824
62	0x3c386039	0.01125341
63	0xbcd9f55b	-0.026606252
64	0xbcaff5f8	-0.021479592
65	0xbd529e10	-0.05142027
66	0x3bc9a223	0.0061533614
67	0xb9a8667d	-0.00032119817
68	0xbcf31626	-0.029673647
69	0x3c2be7cd	0.010492277
70	0x3c88b02c	0.016685568
71	0xbb945d7e	-0.0045277467
72	0x3c4fc457	0.012681088
73	0xbd1979af	-0.037469562
74	0xbca90991	-0.020634444
75	0xbd7d1835	-0.061790664
76	0x3c240418	0.010010742
77	0xbd0ca572	-0.03433747
78	0xbce4d685	-0.027934322
79	0x3c4a263d	0.012338218
80	0xbbb99c32	-0.005664372
81	0xbd06b6ce	-0.03288918
82	0xbd7a95b5	-0.061177928
83	0xbd73173d	-0.059348334
84	0xbd9dd64d	-0.0770689
85	0x3a392e02	0.00070640456
86	0x3c3cdc4a	0.01152713
87	0xbcec2f45	-0.028831134
88	0xbd9b69f0	-0.07588565
89	0xbd87beaf	-0.06628167
90	0xbd24b68e	-0.04021316
91	0xbcbe2fea	-0.023216207
92	0xbd290e35	-0.041273315
93	0xbd13ef36	-0.0361168
94	0xbd3b8287	-0.045778777
95	0xbbe4fa5c	-0.006987853
96	0xbd5c1e4f	-0.053739842
97	0xbc29f500	-0.010373354
98	0xbd76a577	-0.060216393
99	0xbb65a0b3	-0.003503841
100	0xbc8b72e0	-0.01702255
101	0x3c0a77b6	0.008451393
102	0xbd80bc03	-0.062858604
103	0xbd6113e7	-0.05495062
104	0x3b0cea36	0.0021501905
105	0x3b33b0e8	0.0027418677
106	0x3c5750e1	0.013141842
107	0x3cadd116	0.021217864
108	0x3d5044e4	0.05084695
109	0x3c8c9c5d	0.017164404
110	0xbd6ac062	-0.057312377
111	0x3c78be4c	0.015182089
112	0x3c954ad2	0.018224154
113	0x3c9fbd7f	0.019499538
114	0x3c0b1e0d	0.008491051
115	0xbd2b0655	-0.041754086
116	0xbb99850f	-0.0046850513
117	0xbc9fd347	-0.019509925
118	0xbc4b68ca	-0.01241512
119	0x3c94f549	0.018183367
120	0x3cc90dbc	0.024542682
121	0xbca35688	-0.019938722
122	0x3ce7a1ad	0.028275335
123	0xbd29cc15	-0.041454393
124	0x3ca028b8	0.019550666
125	0xbd1f2f0d	-0.03886323
126	0xbc84e1ce	-0.016220953
127	0x3c8f0441	0.017458083
128	0x3c39a98d	0.011331928
129	0xba1544fc	-0.00056941784
130	0xbcc3680b	-0.023853322
131	0x3c99e148	0.01878418
132	0xbbd5399d	-0.006507112
133	0xbd414090	-0.047180712
134	0xbba6b2f0	-0.005087249
135	0xbb11fa21	-0.0022274333
136	0x3a4638d1	0.0007561567
137	0xbcd15999	-0.025555419
138	0x3b450007	0.003005983
139	0xbd6757eb	-0.05648033
140	0x3cb12e8b	0.021628639
141	0xbd24b8c1	-0.040215258
142	0x3c30e2ef	0.010796293
143	0xbcaf8271	-0.021424504
144	0xbd03f070	-0.03221172
145	0x3c804619	0.015658425
146	0xbd13f6e1	-0.036124114
147	0xbc1bae55	-0.009502013
148	0xbd0a0443	-0.03369547
149	0x3cdec05c	0.027191333
150	0xbd5fc779	-0.05463359
151	0xbd0370a4	-0.032089844
152	0xbce3962a	-0.027781565
153	0xbcab035b	-0.020875623
154	0xbd31907c	-0.04335068
155	0x3d005446	0.03133037
156	0xbd407d0e	-0.04699426
157	0xbce8e81e	-0.028430995
158	0xbd3a7b6c	-0.04552786
159	0xbcbc3a35	-0.022976974
160	0x3c8d323a	0.017235864
161	0xbbdb8ec7	-0.00670037
162	0xbc630f32	-0.013858603
163	0xbd3f6a92	-0.046732493
164	0xbd5a823e	-0.053346865
165	0xbccf6a43	-0.025319224
166	0xbd8187ee	-0.06324755
167	0x3beffb11	0.0073236306
168	0xbbe9399b	-0.007117463
169	0x3b631104	0.0034647593
170	0x3c08ed84	0.008357409
171	0x3cdc8ec7	0.02692355
172	0x3c8ec939	0.017429935
173	0x3c904142	0.017609242
174	0xbd716b80	-0.05894041
175	0xbcdfd67c	-0.027323954
176	0x3b8bde1a	0.00426842
177	0xbbdf2f05	-0.006811025
178	0xba85ba70	-0.0010202657
179	0xbd41d4fa	-0.04732225
180	0xbd569c33	-0.052395057
181	0xbc9d3daa	-0.019194443
182	0x3c6342c1	0.013870896
183	0xbd0eabe8	-0.03483191
184	0xbd1f87ff	-0.038948055
185	0xbd915d28	-0.07097846
186	0x3c56231d	0.013069895
187	0x3c811c02	0.015760425
188	0xba746aaa	-0.00093237555
189	0xbcbe2cc2	-0.023214702
190	0xbd6c906f	-0.05775493
191	0xbd06c66f	-0.032904085
192	0xbd335fed	-0.043792654
193	0xbc69a7d9	-0.014261209
194	0x3c4e5121	0.012592585
195	0xbccbefb9	-0.024894582
196	0xbcc96ccf	-0.024588017
197	0x3a9de39b	0.0012045981
198	0xbd372fe6	-0.044723414
199	0xbd3bc6fe	-0.04584407
200	0x3b1c6ee2	0.0023869802
201	0xbd27bbd4	-0.04095061
202	0xbd1339a1	-0.03594363
203	0xbc512930	-0.0127661675
204	0xbd047f3d	-0.032347906
205	0x3b407eae	0.0029372382
206	0xbd5fb994	-0.05462034
207	0x3c02d695	0.007985731
208	0xbd483673	-0.04888005
209	0x3d07df76	0.033172093
210	0xbcbf1aeb	-0.023328265
211	0xbcdc3edc	-0.026885442
212	0x3d75a255	0.059969265
213	0x3cb2d686	0.021830808
214	0xbd8fde6b	-0.07024845
215	0x3c10ba43	0.008833471
216	0xbcb0244d	-0.021501685
217	0xbd02eccb	-0.031964105
218	0xbc24f3d4	-0.010067899
219	0x3b7b7dd0	0.003837455
220	0xbd2de538	-0.04245493
221	0xbd28e396	-0.041232668
222	0xbd1e4ebc	-0.038649306
223	0xbd33d6c8	-0.043906003
224	0xbbc04aba	-0.005868283
225	0x3caea407	0.021318449
226	0xbb8c18b0	-0.004275404
227	0xbcc9c8f4	-0.024631955
228	0xbb34e13b	-0.0027600068
229	0xbc2cbc9d	-0.010543016
230	0xbb1fa274	-0.0024358304
231	0xbbce5e9b	-0.006297899
232	0x3b5ebc73	0.0033986836
233	0xbc6aceab	-0.0143315
234	0x3c38327d	0.011242506
235	0xbd0f0560	-0.034917235
236	0xbd1a479d	-0.037665952
237	0xbd5e2895	-0.05423792
238	0xbca02d0e	-0.019552734
239	0xbca88540	-0.020571351
240	0x3abbf875	0.0014341014
241	0xbd28a186	-0.041169666
242	0xbcd73a37	-0.026272876
243	0xbceb78b7	-0.028744085
244	0xbc986566	-0.018603038
245	0xbb0fba47	-0.0021931098
246	0xbd791fc0	-0.060821295
247	0xbd3aac62	-0.045574553
248	0xbcf900c7	-0.030395878
249	0xbd0beee4	-0.03416337
250	0xbd5c1e97	-0.05374011
251	0xbd96f523	-0.07370975
252	0xbd757952	-0.059930153
253	0xbd71f39e	-0.059070222
254	0xbd090e7a	-0.03346107
255	0xbda0c6be	-0.07850407

localization.3.bias f4 [25]
0	0xbda08dc7	-0.07839542
1	0xbd81fcaf	-0.06347024
2	0x3dd072dd	0.101781584
3	0x3d89ba45	0.06724981
4	0xbd98b755	-0.07456843
5	0xbd5dd0ac	-0.054154083
6	0xbd1ca032	-0.03823871
7	0x3e04c94e	0.12967417
8	0xbe1146c6	-0.14187154
9	0xbdce8193	-0.10083308
10	0xbd9d31b9	-0.076754995
11	0x3e2c4500	0.16823196
12	0x3e31b33e	0.17353532
13	0x3d7ea1b2	0.062165923
14	0xbdb66805	-0.08906559
15	0xbd7a2b4a	-0.06107644
16	0xbdbdd1a5	-0.09268502
17	0xbddeb10d	-0.108736135
18	0xbde22709	-0.110426016
19	0xbdfe0f4e	-0.12405263
20	0xbdfb35be	-0.1226611
21	0xbd15552b	-0.036458176
22	0xbd34ad6f	-0.04411071
23	0xbe108eea	-0.14117017
24	0x3cf1aeac	0.029502235

fc_loc.0.weight f4 [25, 1350]
0	0xbbd5a2ff	-0.006519675
1	0xbcaac231	-0.02084455
2	0x3c79a7f8	0.015237801
3	0x3c8d574e	0.017253544
4	0x3b69ad16	0.0035656146
5	0x3c4fc330	0.012680814
6	0x3c3f769d	0.011685994
7	0x3c48b3b0	0.012249872
8	0xbbbfa83e	-0.0058489135
9	0x3c82beed	0.015960181
10	0xbc97adfb	-0.018515578
11	0x3c1fcd06	0.009753471
12	0x3b1ab0ed	0.002360399
13	0x3cf4ab5a	0.029866863
14	0xbb2f3606	-0.0026735081
15	0xbba4f2a5	-0.0050338083
16	0x3bd46741	0.0064820354
17	0x3c89e9cf	0.016835121
18	0x3c3c6925	0.011499678
19	0xbb9ce1bc	-0.004787652
20	0xbbd26904	-0.0064212102
21	0xbbff40f5	-0.007789726
22	0x3c3c1912	0.011480587
23	0x3b9fdad1	0.00487838
24	0x3bafa387	0.00536007
25	0x3c2394e8	0.0099842325
26	0xbb0cbccd	-0.0021474839
27	0xbc562a07	-0.013071544
28	0x3c9015f9	0.017588602
29	0x3a8849dd	0.001039799
30	0xbc497b2e	-0.012297435
31	0x3c30363b	0.010755117
32	0xbaa9fc0e	-0.0012968795
33	0x3cee801d	0.029113824
34	0x3c468dfd	0.012118814
35	0xb98abb7c	-0.00026461098
36	0x3cef2b6f	0.029195515
37	0xbc712043	-0.014717164
38	0x3ce963fa	0.028490055
39	0xbc44ca30	-0.012011096
40	0x3ccce3d9	0.02501099
41	0x3c50053b	0.01269656
42	0xbca880fb	-0.020569315
43	0xbc530391	-0.012879268
44	0xb967b5ce	-0.00022097604
45	0x3bbd584f	0.0057783495
46	0x3c22b59b	0.009930993
47	0x3c558b35	0.013033678
48	0xbc8b3807	-0.01699449
49	0x3c817872	0.015804503
50	0x3ac05738	0.0014674431
51	0x3ceb28c7	0.028705968
52	0xbc88c258	-0.016694233
53	0xbc3cb051	-0.0115166465
54	0x3c7cddc4	0.015433732
55	0xbc4a5d6e	-0.012351377
56	0x3d03f614	0.0322171
57	0x3c42f795	0.0118998485
58	0xbc3f34df	-0.01167032
59	0xbc528bc4	-0.0128507055
60	0x3c508de7	0.012729145
61	0x3ca3ee6b	0.020011147
62	0xba2306e4	-0.00062189833
63	0xbbf79ccf	-0.007556535
64	0xbb04d024	-0.0020265663
65	0x3c719c1c	0.014746692
66	0x3c9709b7	0.01843725
67	0x3c0d5a21	0.008627445
68	0x3c4cccf2	0.012500035
69	0x3cfea14e	0.031082775
70	0x3bb6de50	0.005580701
71	0x3c04e653	0.008111554
72	0x3cf85745	0.03031505
73	0x3bdb2c9a	0.0066886665
74	0xbae68437	-0.001758701
75	0xbb2b602c	-0.0026149852
76	0xbba67a79	-0.005080518
77	0xbb8a757f	-0.0042254324
78	0xbc1ef96a	-0.00970302
79	0x3c4197ce	0.011815978
80	0xbc24736e	-0.010037286
81	0x3d0ab18c	0.03386073
82	0x3c74ffc8	0.014953561
83	0xbb040828	-0.0020146463
84	0xbb115bc7	-0.0022179948
85	0xbc8c0fb1	-0.017097326
86	0x3cb22b4a	0.021749157
87	0x3ce11448	0.027475491
88	0xbbd40fa1	-0.0064715897
89	0x3cfa87ea	0.030582387
90	0xbc4e4abf	-0.012591063
91	0x3d05513b	0.03254817
92	0x3c9eec5e	0.019399818
93	0xbc74f1df	-0.014950245
94	0x3c49e483	0.012322548
95	0xbbfcc8e5	-0.007714378
96	0x3c4416dc	0.011968341
97	0xbc4b714b	-0.012417148
98	0x3b43ab28	0.0029856656
99	0x3af682e7	0.0018807322
100	0x3ca9c542	0.020723943
101	0x3d0e408f	0.034729537
102	0x3ce70214	0.028199233
103	0x391cf370	0.00014968007
104	0x3c3007ea	0.010744074
105	0xbc4ea091	-0.012611524
106	0x3d0432b5	0.03227492
107	0xbc7b4143	-0.015335384
108	0x3c9e3ae4	0.01931519
109	0x3c542070	0.012947187
110	0xbd7c2b94	-0.061564997
111	0xbcf756f1	-0.030192824
112	0xbc05693b	-0.008142765
113	0x3d7e213f	0.062043425
114	0xbc78776f	-0.015165194
115	0xbd3a0580	-0.0454154
116	0x3c8d3cb2	0.017240856
117	0x3d40296f	0.046914514
118	0x3ce4792f	0.027889816
119	0x3b4666ae	0.0030273604
120	0xbc970ed9	-0.018439697
121	0xbc6a7975	-0.014311184
122	0xbd659da4	-0.05605854
123	0xbcdee7b1	-0.027210088
124	0xbcfb6d9b	-0.030691912
125	0xbd6b01f5	-0.057374913
126	0x3d7314a8	0.05934587
127	0x3bd9f230	0.0066511855
128	0xbc1a102f	-0.0094032725
129	0x3ccc0818	0.024906203
130	0xbc0c1347	-0.008549518
131	0xbb40c38e	-0.0029413435
132	0xbd9f5f24	-0.077818185
133	0x3884d0bd	6.333131e-05
134	0x3c07539a	0.008259678
135	0xbc9e9a02	-0.019360546
136	0xbc6eb651	-0.014569835
137	0x3cb83c0b	0.022489568
138	0x3c9b5939	0.018963443
139	0x3c93ed00	0.018057346
140	0x3c1a2812	0.009408968
141	0x3ca813b2	0.020517204
142	0xbca0d766	-0.01963396
143	0xbaede87e	-0.0018150953
144	0xbc91a03c	-0.017776601
145	0xbda002d6	-0.07813041
146	0xbd7cb9d7	-0.06170067
147	0x3bbbce88	0.0057314076
148	0x3c2c4932	0.010515498
149	0xbc6eb362	-0.014569135
150	0xbcbc324b	-0.0229732
151	0x3c35e830	0.011102721
152	0xbcf3fab5	-0.029782632
153	0xbc9f2fdb	-0.019431999
154	0xbbbfa16d	-0.005848101
155	0xbd5006f5	-0.050787885
156	0xbd49284f	-0.049110707
157	0xbc728ecc	-0.014804553
158	0xbbd39224	-0.0064566303
159	0x3ce0e37b	0.027452221
160	0x3c03e454	0.008050043
161	0xbcaf4a6c	-0.021397792
162	0xbd9fe597	-0.07807463
163	0xbddaa827	-0.10676604
164	0xbd09e01c	-0.033660993
165	0xbd327aab	-0.043574017
166	0xbca39b6c	-0.019971572
167	0xbb60e32a	-0.0034315088
168	0xbd3117ab	-0.043235462
169	0xbcbc29f1	-0.022969218
170	0x3b96ac1f	0.004598155
171	0x3c09fbfe	0.008421896
172	0xbd64efd0	-0.055892766
173	0xbb5f7f77	-0.0034103075
174	0x3ba6b186	0.0050870804
175	0xbdbbcd08	-0.09169966
176	0xbd6c889c	-0.05774747
177	0xbd502176	-0.05081316
178	0x3ccc6ed2	0.024955187
179	0xbcde32c4	-0.027123816
180	0xbc9cb1c2	-0.01912773
181	0xbd8138be	-0.06309651
182	0xbdf442a2	-0.11926772
183	0xbce631c4	-0.028099902
184	0xbd298e74	-0.04139562
185	0xbd9e4197	-0.07727354
186	0xbd8865a5	-0.06660012
187	0xbd600914	-0.054696158
188	0x3c867339	0.016412364
189	0x3c450416	0.0120249
190	0x3d163da7	0.03667989
191	0x3c8810df	0.016609607
192	0x3d3f9357	0.046771374
193	0x3c4d56a7	0.012532867
194	0x3d1a1873	0.037620973
195	0x3d0966a8	0.033545166
196	0xbd80d14c	-0.0628992
197	0xbd00c2c5	-0.031435747
198	0xbd1abe70	-0.03777927
199	0xbc760654	-0.015016157
200	0x3d093e03	0.033506405
201	0x3cdcbcef	0.02694556
202	0x3afd00ca	0.0019302603
203	0x3ccd423c	0.025055997
204	0x3b164e36	0.00229348
205	0xbd30772e	-0.04308241
206	0xbd8ee3a1	-0.069770105
207	0xbd5b0501	-0.05347157
208	0xbccbebb4	-0.024892665
209	0x3c2ddd62	0.010611864
210	0xbc896424	-0.016771384
211	0xbd1e2ae2	-0.038615115
212	0xbd3f9b62	-0.046779044
213	0xbaf4a8cd	-0.0018666029
214	0xbc3af4ad	-0.011410874
215	0xba1887a7	-0.00058185536
216	0x3b84ab36	0.0040487302
217	0xbca7aef9	-0.020469176
218	0x3b3aa193	0.0028477653
219	0x3b8a1a97	0.0042145955
220	0xbc92106c	-0.017830096
221	0x3c811cb5	0.015760759
222	0xbcd08ebc	-0.025458686
223	0x3c807b07	0.015683664
224	0xbbeb4dd0	-0.007180907
225	0xbc045465	-0.008076762
226	0xbbfe94ae	-0.007769189
227	0x3c9d6b9d	0.019216353
228	0x3b2a1e04	0.0025957832
229	0xbc6994a4	-0.01425663
230	0xbc9606c9	-0.018313782
231	0xbc3cef4b	-0.011531661
232	0x3cb2619c	0.02177506
233	0x3b530675	0.0032199894
234	0xb97ddbf4	-0.00024209899
235	0x3c4e22e1	0.012581558
236	0x3c6cb79b	0.014448072
237	0xbce7b367	-0.028283788
238	0xbb6a934c	-0.0035793362
239	0xbce14557	-0.027498884
240	0x3c7171b7	0.014736584
241	0xbc33b9d5	-0.010969599
242	0xbc7dc0b9	-0.015487843
243	0xbb84a9f6	-0.0040485812
244	0x3c16a8dd	0.009195534
245	0xbd114082	-0.03546191
246	0xbcdefddc	-0.027220659
247	0xbd0d634e	-0.034518532
248	0x3c3a6b05	0.0113780545
249	0x3c12cd54	0.008960087
250	0x3c85f991	0.016354354
251	0xbc779009	-0.015110024
252	0xbc838bff	-0.016057966
253	0xbc3c9300	-0.011509657
254	0xbcc1ebbf	-0.023671983
255	0x3b9e942b	0.0048394403

fc_loc.0.bias f4 [25]
0	0xbd9b644b	-0.07587489
1	0xbd4c60e1	-0.04989708
2	0xbd7720bb	-0.06033395
3	0xbd2d94d7	-0.042378273
4	0xbd122d57	-0.03568777
5	0x3ebf8484	0.3740579
6	0xbd5beb50	-0.05369121
7	0xbcf30c0c	-0.02966883
8	0x3f08b9ea	0.5340868
9	0x3ea4778a	0.3212245
10	0x3d8f6838	0.070023
11	0x3e49bc8b	0.1970083
12	0xbd815fe6	-0.06317119
13	0xbda49f4c	-0.08038196
14	0xbd529f51	-0.051421467
15	0x3ef04e22	0.4693461
16	0xbd553112	-0.05204875
17	0x3d1a34fe	0.037648194
18	0xbd3dbfea	-0.0463256
19	0x3d000ba9	0.03126112
20	0xbd3767f2	-0.044776864
21	0xbc7afbe7	-0.015318847
22	0xbdb8df6e	-0.09026991
23	0x3efe2288	0.4963572
24	0xbcabd85c	-0.020977192

fc_loc.2.weight f4 [6, 25]
0	0x3be1c719	0.0068901894
1	0xbcef7811	-0.029232057
2	0xbd58065d	-0.052740443
3	0xbcd604c2	-0.026125316
4	0x3b197e06	0.0023421063
5	0xbc12f8cf	-0.008970453
6	0xbb85f281	-0.0040877466
7	0xbc59f1ff	-0.013302325
8	0xbc8fe134	-0.01756344
9	0x3d5eb988	0.054376155
10	0xbd32a49e	-0.043614022
11	0x3d101828	0.035179287
12	0x3c7200d2	0.014770703
13	0x3d2c3649	0.042043958
14	0x3ba1b3e7	0.004934776
15	0x3d35ba60	0.044367194
16	0xbb81517f	-0.0039464827
17	0x3d3999e3	0.045312773
18	0xbce2dfb9	-0.02769457
19	0xbd397f50	-0.04528743
20	0xbd05c6ab	-0.032660168
21	0x3add1380	0.0016866773
22	0x3b0f6d3d	0.002188518
23	0xbd6f0f97	-0.058364477
24	0xbd13325a	-0.03593669
25	0xbd1f93e5	-0.038959403
26	0xbcfeaf52	-0.031089459
27	0x3c8dd8eb	0.017315349
28	0xbbf5fa15	-0.0075066187
29	0xbc6afae7	-0.014342046
30	0x3dd4a81c	0.10383627
31	0xbcb079aa	-0.021542389
32	0x3c16212a	0.00916318
33	0xbdbec1d9	-0.09314317
34	0x3d2a821e	0.041627996
35	0x3d8ab91f	0.0677359
36	0x3caef1d0	0.02135554
37	0xbd66afba	-0.05631993
38	0x3cd6e446	0.026231896
39	0xbc8751a6	-0.016518425
40	0xbcd01a23	-0.025403088
41	0xbba28639	-0.0049598482
42	0x3c5701cc	0.013122987
43	0xbcfbc155	-0.030731836
44	0xbde75b45	-0.11296705
45	0xbc2a53cf	-0.010395958
46	0xbd815d8d	-0.063166715
47	0x3bd87abf	0.0066064293
48	0xbdd83385	-0.105567016
49	0xbc390e21	-0.0112948725
50	0x3c9c2788	0.019061819
51	0x3c288e32	0.010287808
52	0xbc99f6b6	-0.018794399
53	0x3bafb07a	0.005361614
54	0xbb96f435	-0.0046067485
55	0x3cdafe94	0.02673272
56	0xbd0a2cf8	-0.03373429
57	0x3c55480d	0.0130176665
58	0xbbf0df18	-0.0073508136
59	0x3c6006d7	0.013673506
60	0xbc574bdc	-0.013140645
61	0x3ba07519	0.0048967716
62	0xbb5af4bd	-0.0033410036
63	0x3d36b7b6	0.044608794
64	0x3b71ef0a	0.003691616
65	0x3c1f9707	0.009740598
66	0x3aed146f	0.0018087755
67	0x3db8c835	0.090225615
68	0xbc7d0af9	-0.015444511
69	0xbcc08ba6	-0.02350409
70	0xbc587785	-0.013212089
71	0x3d247cbe	0.040158026
72	0x3c5547d7	0.013017616
73	0xbda2b662	-0.07944943
74	0x3cac1996	0.021008294
75	0x3cc0f9aa	0.02355655
76	0x3b9035b1	0.0044009318
77	0x3bc48daf	0.0059983353
78	0x3d1ea58e	0.038732104
79	0x3cbc297c	0.022969
80	0xbe8b82a9	-0.27248123
81	0x3c8618e6	0.016369294
82	0x3cbbe2e2	0.022935335
83	0x3e4039dc	0.18772072
84	0x3e1231d0	0.14276814
85	0x3c39f53d	0.011349973
86	0xbdc9ac00	-0.098472595
87	0xbae04093	-0.0017109088
88	0xbc30629b	-0.010765697
89	0x3bff40da	0.0077897133
90	0xbcb68bdd	-0.022283489
91	0x3c335eed	0.010947925
92	0x3df32f41	0.11874247
93	0xbd082a63	-0.033243548
94	0xbd44aa7a	-0.04801414
95	0xba3420ff	-0.0006871372
96	0xbd3d2e62	-0.046186812
97	0x3d3c4139	0.04596064
98	0x3e3a10fa	0.18170539
99	0x3d057705	0.03258421
100	0xbce33f1a	-0.02774005
101	0x3bef2841	0.0072985
102	0x3cdaa4ef	0.026689975
103	0x3cdeccc0	0.027197242
104	0x3c17b5c0	0.009259641
105	0xbd0a78e2	-0.03380669
106	0xbc7a6b42	-0.015284361
107	0x3cbf69cc	0.023365878
108	0x3b2067d9	0.002447596
109	0x3be6e4e1	0.0070463275
110	0xbddbba0a	-0.107288435
111	0x3dac73ed	0.084205486
112	0xbccbbbff	-0.024869917
113	0x3b6ba4b1	0.0035956318
114	0x3a274aff	0.000638172
115	0x3e16f9e0	0.14743757
116	0x3d2a9bbf	0.041652437
117	0x3c7f4a0d	0.01558162
118	0x3bb61d36	0.0055576814
119	0xbd6cfe19	-0.057859514
120	0x3c322188	0.010872252
121	0xbda643b1	-0.0811838
122	0x3d27d50d	0.040974665
123	0xbdbbc620	-0.09168649
124	0xbc9c7175	-0.01909707
125	0x3b512071	0.0031910206
126	0xbc8ae41a	-0.01695447
127	0xbd39c118	-0.045350164
128	0xbc20646c	-0.009789567
129	0x3be54433	0.0069966554
130	0x3cc603c9	0.024171727
131	0x3caa926e	0.020821776
132	0x3c356a00	0.011072636
133	0xbd7bfca8	-0.06152025
134	0x3d077641	0.03307176
135	0xbd75b72a	-0.059989132
136	0xbd629ff9	-0.055328343
137	0x3d3dbeb0	0.046324432
138	0x3db0b78c	0.08628759
139	0x3c9fd8cc	0.019512556
140	0x3dd1a235	0.10236017
141	0x3bf70ce4	0.0075393785
142	0x3cece213	0.028916394
143	0xbceeec9d	-0.02916556
144	0xbc68e62b	-0.014215033
145	0x3d04c07a	0.032410122
146	0x3dac5efd	0.08416555
147	0xbc537119	-0.012905383
148	0x3d202154	0.039094284
149	0x3d6511da	0.055925228

fc_loc.2.bias f4 [6]
0	0x3f9c4739	1.2209235
1	0x3c8b8231	0.017029854
2	0x3d976e2f	0.07394063
3	0x3b546424	0.0032408321
4	0x3f792629	0.9732385
5	0x3e75424a	0.23951069
