weights/stn_9574.ckpt (torch_old, 223398 bytes, 8 tensors)

localization.0.weight f4 [32, 3, 3, 3]
0.009588286 -0.0018388247 0.009470052 -0.009165188 0.009940666 0.00086384057 0.0022034172 -0.005369368
-0.008278926 -0.032235935 -0.0170338 -0.018500965 -0.025807288 -0.012465737 -0.008569921 -0.012785237
-0.0046407036 -0.014343369 0.011234529 0.0035792876 0.014399099 -0.013188774 -0.014104918 0.015307066
0.013586451 0.0048188833 0.008037899 -0.004828025 -0.0061208266 0.00029861732 -0.0041073337 -0.008397577
0.0048342384 -0.018627185 -0.01334358 -0.0037522041 0.01407378 0.0048277783 0.005514121 0.015394762
-0.004393115 0.0071928566 -0.003956266 -0.0039684284 -0.000722881 0.0021966156 -0.004697618 0.0069669643
0.006569229 0.011470777 0.0039903866 -0.0038677414 -0.00079713 0.0013238097 0.12553662 -0.05267721
-0.16299951 -0.14617927 0.01138479 0.10878558 -0.044168722 0.10019481 -0.0073092612 -0.20117432
-0.17695378 0.06080804 -0.3152675 0.098133914 0.05702191 0.12927422 0.13219017 0.13709515
-0.04740352 -0.19332455 0.059643358 -0.28747517 0.046230275 0.22703448 0.0676727 0.23603153
-0.013404941 0.006239468 -0.018650154 -0.0029955963 0.009908778 -0.003540803 0.0032066954 0.0237101
0.0068030274 -0.014015052 -0.011933278 -0.03472789 -0.032097477 -0.02426675 -0.032078695 -0.021802982
-8.844003e-05 -0.018445842 -0.020283453 -0.002486892 9.0209005e-06 0.019227989 -0.0011104611 0.0025324044
0.013548265 0.003765446 0.0051245447 0.006718455 -0.05289282 0.015338397 -0.1111725 -0.073189706
0.060740124 0.07135491 -0.13917534 -0.049351964 0.17464237 -0.034734935 0.08352002 -0.02867466
-0.08154399 0.11838443 -0.060021676 0.11087059 -0.012319189 -0.10970803 -0.05833811 -0.013821077
0.096403316 0.044722497 0.09270831 -0.17880288 0.024812197 0.0014796896 -0.056228124 -0.0011915441
0.0045090322 0.007955316 -0.0010258777 0.00050350826 0.0059904642 -0.0037586677 0.0031939864 0.005917316
-0.015151607 -0.013554572 -0.01158134 0.03643964 -0.02275303 -0.020495 -0.01661437 -0.0114152115
-0.0110865375 0.0046357736 0.0026948443 0.0031990889 -0.008819375 -0.00543089 -0.0042916783 0.0019329777
0.00082099246 0.0008011799 -0.20100822 -0.12333606 0.0016676482 0.105342075 0.29245394 0.019505609
0.029975394 -0.17974971 -0.10350102 -0.15057501 -0.014964666 0.1352153 0.110399574 0.36885592
-0.11783582 0.114372686 -0.20851277 -0.14805768 -0.10224163 -0.15297909 0.15455776 0.16905785
0.26517874 0.06511845 0.23504071 -0.22235928 -0.19644645 -0.015317587 -0.008773337 -0.015033583
-0.011149406 -0.010657833 -0.0071809357 -0.0036520602 0.0013369147 -0.0058493135 -0.0032400445 -0.0037941176
-0.0029065495 -0.008158136 -0.005286385 0.0042347615 -0.0033008107 0.004592309 -0.004050151 0.003609665
0.0038500433 0.023756452 0.003014075 0.0032157598 0.028345963 -0.0062785395 0.0007759273 0.018379774
-0.013289888 0.015087104 -0.0036362594 0.0035402072 -0.0014861074 0.00069281517 0.023103435 0.028944865
0.006938701 0.0032526369 0.006900502 -0.01601166 -0.010117655 -0.020228999 -0.015922936 0.0009207605
0.00482215 -0.022232685 -0.0046194093 0.004749111 0.013762637 -0.0058980193 -0.0019907765 0.003808666
0.010601658 0.024195937 0.0020542198 0.011654272 -0.032299314 -0.028715385 0.047634177 0.045101974
0.1020303 -0.16664174 -0.0028141208 0.017377883 0.068514206 -0.13166024 0.15036246 -0.008083169
00000000: 3018 1d3c b804 f1ba 4728 1b3c 9629 16bc
00000010: 2dde 223c 5c73 623a 3567 103b 86f1 afbb
00000020: 55a4 07bc d409 04bd 788a 8bbc 568f 97bc
00000030: ce69 d3bc 173d 4cbc db68 0cbc 2c79 51bc
00000040: 0b11 98bb 7300 6bbc 0811 383c 7b92 6a3b
00000050: 33ea 6b3c ba15 58bc 5018 67bc 7dca 7a3c
00000060: b599 5e3c b9e7 9d3b 64b1 033c 6934 9ebb
00000070: 3791 c8bb bd8f 9c39 d096 86bb fe95 09bc
00000080: 8868 9e3b 0a98 98bc 089f 5abc 8ae7 75bb
00000090: b695 663c 5732 9e3b cdaf b43b 503a 7c3c
000000a0: 1ff4 8fbb 0eb2 eb3b 91a3 81bb 9709 82bb
000000b0: b97f 3dba 18f5 0f3b 7aee 99bb 224b e43b
000000c0: b042 d73b edef 3b3c cac1 823b ef79 7dbb
000000d0: 7df6 50ba af83 ad3a ac8c 003e 0fc4 57bd
000000e0: 58e9 26be 05b0 15be 4587 3a3c f9ca de3d
000000f0: 43ea 34bd f032 cd3d 8782 efbb a400 4ebe
00000100: 5f33 35be da11 793d be6a a1be 6ffa c83d
00000110: ce8f 693d 7660 043e dc5c 073e ac62 0c3e
00000120: 322a 42bd dff6 45be 984c 743d f22f 93be
00000130: f55b 3d3d ba7b 683e fc97 8a3d 40b2 713e
00000140: 66a0 5bbc 7474 cc3b 35c8 98bc c451 44bb
00000150: 6d58 223c d10c 68bb 6c27 523b af3b c23c
00000160: eeeb de3b 639f 65bc cc83 43bc d53e 0ebd
00000170: a578 03bd 10cb c6bc f364 03bd 2b9c b2bc
00000180: e178 b9b8 bc1b 97bc 7c29 a6bc 20fb 22bb
00000190: 7958 1737 0484 9d3c e48c 91ba b2f6 253b
000001a0: 8bf9 5d3c b3c5 763b cceb a73b 7c26 dc3b
000001b0: 24a6 58bd e64d 7b3c 68ae e3bd 7ce4 95bd
000001c0: a3ca 783d 8622 923d fb83 0ebe 4925 4abd
000001d0: 73d5 323e 3846 0ebd 8b0c ab3d 1fe7 eabc
000001e0: 8900 a7bd 8973 f23d 4ad9 75bd 1f10 e33d
000001f0: 6cd6 49bc 9bae e0bd f1f3 6ebd cc71 62bc
00000200: 1a6f c53d f02e 373d dbdd bd3d 1a18 37be
00000210: f342 cb3c 25f2 c13a 764f 66bd 962d 9cba
00000220: 81c0 933b 0457 023c be76 86ba defd 033a
00000230: a84b c43b fb53 76bb 3352 513b 0be6 c13b
00000240: 723e 78bc ff13 5ebc a9bf 3dbc bb41 153d
00000250: 9064 babc 21e5 a7bc dc1a 88bc de06 3bbc
00000260: 4fa4 35bc b0e7 973b fc9b 303b cea7 513b
00000270: 247f 10bc 9bf5 b1bb 35a1 8cbb f85b fd3a
00000280: df37 573a 4606 523a 19d5 4dbe 9e97 fcbd
00000290: fd94 da3a 96bd d73d 86bc 953e 3aca 9f3c
000002a0: f58e f53c 4f10 38be 58f8 d3bd 5630 1abe
000002b0: 5c2e 75bc e175 0a3e 2c19 e23d afda bc3e
000002c0: e853 f1bd 3a3c ea3d 5f84 55be 6f9c 17be
000002d0: 0f64 d1bd 8da6 1cbe 6444 1e3e 801d 2d3e
000002e0: 82c5 873e d25c 853d 83ae 703e 27b2 63be
000002f0: 4229 49be 9ef6 7abc 0bbe 0fbc 6b4f 76bc
00000300: 00ac 36bc 319e 2ebc 0e4e ebbb 6757 6fbb
00000310: 6a3b af3a 99ab bfbb ed56 54bb bba6 78bb
00000320: cf7b 3ebb b4a9 05bc 6939 adbb c1c3 8a3b
00000330: 6a52 58bb 147b 963b 21b7 84bb 2190 6c3b
00000340: 0251 7c3b e49c c23c ca87 453b 7fbf 523b
00000350: cb35 e83c 35bc cdbb 9a67 4b3a 2e91 963c
00000360: d5bd 59bc e72f 773c 4f4e 6ebb d202 683b
00000370: 7dc9 c2ba 0a9e 353a 6a43 bd3c c81d ed3c
00000380: 0b5e e33b 312a 553b 9b1d e23b e32a 83bc
00000390: 85c4 25bc 49b7 a5bc d170 82bc 315f 713a
000003a0: 2003 9e3b 5221 b6bc 6a5e 97bb 6e9e 9b3b
000003b0: af7c 613c 2c44 c1bb b077 02bb d09a 793b
000003c0: 94b2 2d3c 8f36 c63c 17a0 063b 8ff1 3e3c
000003d0: 494c 04bd 873c ebbc 0e1c 433d d9bc 383d
000003e0: 43f5 d03d 22a4 2abe 1d6d 38bb 105c 8e3c
000003f0: 2d51 8c3d f1d1 06be 9ef8 193e 456f 04bc

localization.0.bias f4 [32]
-0.24756251 -0.21925676 -0.27156487 -0.30804384 -1.039991 -0.23074263 -0.57489914 -0.20772502
-0.21196108 -0.88813853 -0.20509014 -0.00482036 -0.8222367 -0.9236366 -0.23301217 -0.9713406
-0.0004448074 -0.8309602 -3.4737878e-23 -1.0958112 -7.021888e-22 -1.0277286 -0.22882229 -0.12103574
-0.19467631 -0.09832813 -0.37532118 -0.7179848 -8.6195345e-10 -0.22822347 -0.6235301 -1.687561e-23
00000000: 0781 7dbe d884 60be 8d0a 8bbe ecb7 9dbe
00000010: 6d1e 85bf cc47 6cbe 972c 13bf deb5 54be
00000020: 530c 59be 0c5d 63bf 2603 52be 1cf4 9dbb
00000030: 1b7e 52bf 7373 6cbf be9a 6ebe c7a9 78bf
00000040: 0a35 e9b9 cfb9 54bf 69fb 279a 8b43 8cbf
00000050: 3a39 549c 9c8c 83bf 6450 6abe 96e1 f7bd
00000060: 3a59 47be 4260 c9bd 192a c0be dacd 37bf
00000070: 95ee 6cb0 6ab3 69be ab9f 1fbf fd35 a399

localization.3.weight f4 [32, 32, 5, 5]
-3.45775e-40 1.1767e-41 2.64326e-40 -6.77133e-40 6.2377e-41 -5.96893e-40 8.54393e-40 9.47987e-40
3.62362e-40 6.06715e-40 4.90831e-40 -5.43466e-40 -6.79212e-40 -4.72138e-40 -2.6706e-40 1.015504e-39
6.35836e-40 6.27721e-40 2.61345e-40 7.59827e-40 -1.162621e-39 3.13634e-40 -8.69126e-40 -3.6232e-41
-9.78507e-40 9.9477e-41 7.3839e-41 -9.0298e-40 -4.73045e-40 -8.54683e-40 1.86629e-40 -1.027323e-39
-2.5197e-40 4.98447e-40 -7.75938e-40 5.1151e-40 -1.113954e-39 2.13021e-40 9.28746e-40 4.58024e-40
-5.65865e-40 6.62474e-40 2.50254e-40 6.80126e-40 -4.27958e-40 7.4253e-41 3.6144e-41 -5.01197e-40
-9.63002e-40 6.18788e-40 -5.551872e-05 -4.0235545e-06 -4.125828e-06 -0.00013081469 -9.866286e-06 -0.0002589679
-7.066134e-05 -0.00013094768 -0.00022407407 -7.7870216e-05 -5.9542628e-05 -6.0875504e-05 -0.00012468743 -0.0001972978
-4.862345e-05 -1.3592851e-06 -2.3061519e-05 -0.00012877953 -5.4159802e-05 -3.7197366e-05 -1.3780902e-08 -2.8978163e-06
-9.969757e-07 -5.4431626e-07 -4.8998052e-05 -1.368266e-39 -8.38369e-40 -7.61031e-40 6.3288e-41 1.248872e-39
1.099825e-39 -3.93276e-40 1.11635e-39 6.13767e-40 3.5117e-41 3.64476e-40 -1.250355e-39 6.77231e-40
-8.99862e-40 8.53092e-40 1.01751e-40 2.26575e-40 -1.22745e-40 -5.46969e-40 -7.0629e-40 9.1833e-41
-1.03782e-40 1.92145e-40 -3.85231e-40 4.3072e-40 -1.50572e-40 -3.28638e-40 9.65682e-40 -3.92518e-40
-2.6114592e-34 -1.9378e-40 3.12899e-40 3.36567e-40 -1.37263e-40 4.764e-41 -1.6124334e-19 -1.25765e-40
-2.4727e-40 -6.836974e-30 -3.42723e-40 -6.742e-41 2.82732e-40 -2.98279e-40 -2.43582e-40 -3.12547e-40
2.43698e-40 -1.487e-41 -2.2796996e-33 -8.8419e-41 -3.21909e-40 -8.97812e-40 -1.032544e-39 -1.039695e-39
-2.90251e-40 -8.0698e-40 9.63446e-40 -1.57961e-40 3.20342e-40 1.124464e-39 -3.82619e-40 2.2961e-40
-5.09627e-40 1.07216e-39 8.63431e-40 8.71452e-40 7.66481e-40 7.98918e-40 1.043066e-39 -1.255038e-39
6.81159e-40 -1.04244e-40 -2.2166e-41 -4.5581e-41 -1.063925e-39 -6.81657e-40 -4.7646775e-25 -2.5439695e-27
7.6546e-41 -5.0332683e-22 -3.2597478e-09 -1.1894337e-11 -1.04501155e-22 -1.6162335e-17 -4.635265e-27 -1.75934e-40
-3.6944512e-09 -2.2993557e-11 -8.441354e-15 -1.4998783e-10 -2.8103214e-12 -2.014971e-15 -7.8653874e-14 -2.2666993e-07
-1.3458988e-09 -1.8793687e-09 1.0398834e-34 -4.794182e-11 -3.2950106e-07 -4.805936e-11 -3.717528e-10 1.257391e-39
8.41092e-40 6.44942e-40 -8.84791e-40 5.00072e-40 1.36041e-40 2.72282e-40 1.049552e-39 -2.9379e-40
-4.134e-41 -8.77118e-40 -6.92878e-40 1.69022e-40 -5.66883e-40 -2.676e-40 -6.95179e-40 -7.47307e-40
-8.795e-41 -2.71276e-40 -6.0838e-40 -1.21795e-40 -1.345055e-39 -6.52352e-40 8.57057e-40 -1.10904e-39
3.84885e-40 7.76105e-40 -6.39299e-40 -6.58257e-40 5.85376e-40 9.86186e-40 1.005453e-39 1.31899e-40
8.43755e-40 -2.78825e-40 -6.8645e-40 -1.70963e-40 5.50377e-40 3.2601e-41 3.62824e-40 7.39656e-40
-2.1658e-41 7.03456e-40 7.18457e-40 9.08801e-40 -3.58292e-40 -1.8118e-40 3.17851e-40 -9.809e-40
2.13664e-40 1.79111e-40 1.026046e-39 5.39053e-40 -5.53731e-40 -1.16494e-39 -3.28715e-40 -1.35351e-40
3.40182e-40 5.6399e-40 -3.85028e-40 2.32861e-40 -8.7375e-41 -2.14977e-40 -4.05205e-40 1.45208e-40
2.18385e-40 -1.50393e-40 4.7074e-41 -7.8048e-41 -2.14798e-40 1.344e-40 2.3763e-41 1.96863e-40
-1.24986e-40 3.7447e-40 -0.0010875086 -0.0009222378 -0.0010634563 -0.0016721163 -0.00159026 -9.011037e-05
00000000: e1c3 0380 cd20 0000 d5e0 0200 925f 0780
00000010: e2ad 0000 e57f 0680 b34d 0900 9a52 0a00
00000020: 1ef2 0300 469b 0600 3d58 0500 f6ea 0580
00000030: 5e65 0780 2124 0580 74e8 0280 d00e 0b00
00000040: 74ec 0600 d5d5 0600 86d8 0200 1746 0800
00000050: eaa8 0c80 496a 0300 c576 0980 0065 0080
00000060: aea7 0a80 4d15 0100 d5cd 0000 24d5 0980
00000070: a826 0580 824e 0980 3f08 0200 c22f 0b80
00000080: 64be 0280 786d 0500 0073 0880 e291 0500
00000090: 4021 0c80 d151 0200 f71c 0a00 c9fc 0400
000000a0: 6729 0680 b536 0700 9bb9 0200 ea67 0700
000000b0: f9a8 0480 fdce 0000 c164 0000 2275 0580
000000c0: 757c 0a80 eebc 0600 c6dc 68b8 1202 87b6
000000d0: 9870 8ab6 4d2b 09b9 6087 25b7 15c6 87b9
000000e0: 0530 94b8 004f 09b9 6df5 6ab9 414e a3b8
000000f0: 69bd 79b8 9354 7fb8 87be 02b9 bae1 4eb9
00000100: 08f1 4bb8 ae70 b6b5 3c74 c1b7 fe08 07b9
00000110: a529 63b8 5e04 1cb8 0cc1 6cb2 1b78 42b6
00000120: d3cf 85b5 211d 12b5 4283 4db8 2be6 0e80
00000130: 0821 0980 7249 0880 6cb0 0000 5999 0d00
00000140: ddf9 0b00 4b48 0480 ee27 0c00 efae 0600
00000150: e461 0000 03f8 0300 7b9d 0d80 d85f 0700
00000160: 73cc 0980 134a 0900 a41b 0100 9977 0200
00000170: 2a56 0180 baf4 0580 d9b0 0780 feff 0000
00000180: 4d21 0180 9f17 0200 de31 0480 acb0 0400
00000190: bca3 0180 1c94 0380 ee83 0a00 2e46 0480
000001a0: ad8f ad87 2e1c 0280 3c68 0300 36aa 0300
000001b0: a27e 0180 cd84 0000 cf5c 3ea0 955e 0180
000001c0: 4ab1 0280 99ab 0a8f 5fbb 0380 f1bb 0080
000001d0: 2414 0300 7b3f 0380 02a7 0280 4167 0380
000001e0: 55a7 0200 7429 0080 d963 3d89 7af6 0080
000001f0: 5a81 0380 bcc6 0980 503e 0b80 3f52 0b80
00000200: 1a29 0380 88c9 0880 b27d 0a00 55b8 0180
00000210: fc7c 0300 8c3e 0c00 962a 0480 0f80 0200
00000220: a28c 0580 bfac 0b00 e566 0900 417d 0900
00000230: a358 0800 0fb3 0800 a55b 0b00 89aa 0d80
00000240: cb6a 0700 9722 0180 ca3d 0080 107f 0080
00000250: ca95 0b80 2f6c 0780 aa75 1397 d58d 4993
00000260: 61d5 0000 071f 189c 1702 60b1 553f 51ad
00000270: 15ab fc9a 3c12 95a3 2c9f b793 6fea 0180
00000280: 79e1 7db1 e340 caad e010 18a8 d2e9 24af
00000290: 40c2 45ac a831 11a7 df1c b1a9 8e62 73b4
000002a0: 9bfa b8b0 3426 01b1 6639 0a07 b1d9 52ae
000002b0: 48e6 b0b4 075e 53ae 8e5f ccaf 18b1 0d00
000002c0: 9f28 0900 d605 0700 70a2 0980 ff71 0500
000002d0: 3a7b 0100 03f7 0200 b96d 0b00 f832 0380
000002e0: 3d73 0080 0c8d 0980 768b 0780 2ad7 0100
000002f0: 3d2c 0680 f6e9 0280 e091 0780 3023 0880
00000300: 2bf5 0080 35f4 0280 ea9f 0680 8453 0180
00000310: 77a5 0e80 7e1a 0780 2055 0900 8d13 0c80
00000320: e730 0400 7773 0800 1bf6 0680 f42a 0780
00000330: ca5f 0600 16bd 0a00 cbf2 0a00 ae6f 0100
00000340: 0c30 0900 4009 0380 8b79 0780 93dc 0180
00000350: 3afe 0500 e15a 0000 68f3 0300 dc0d 0800
00000360: 603c 0080 f3a8 0700 c4d2 0700 5ee5 0900
00000370: c6e6 0380 0ef9 0180 0a76 0300 5aae 0a80
00000380: 9c53 0200 4af3 0100 332c 0b00 a9de 0500
00000390: 9407 0680 61af 0c80 5394 0380 4e79 0180
000003a0: 4ab4 0300 2d24 0600 4d31 0480 1f89 0200
000003b0: 91f3 0080 4557 0280 8c69 0480 c894 0100
000003c0: c560 0200 3ca3 0180 3983 0000 91d9 0080
000003d0: c556 0280 a776 0100 3e42 0000 c624 0200
000003e0: 695c 0180 df13 0400 bc8a 8eba 55c2 71ba
000003f0: ac63 8bba ea2a dbba 4570 d0ba a3f9 bcb8

localization.3.bias f4 [32]
-0.0046347897 -0.027842758 -0.024246037 -1.1729868e-32 -0.0009794416 -0.014889678 -0.009529142 -3.8384405e-20
-0.08983478 -0.15142995 -0.020529246 0.055770293 -0.00013214276 -0.005321799 -1.09951e-16 0.057774264
-0.026861742 0.030512365 -0.05928214 -0.0877968 -3.8277584e-10 -0.0537007 -4.6770605e-08 0.15056461
0.049379524 -0.08486186 0.1303191 -0.014840778 -0.019646954 -0.0006311338 -0.0022989768 -1.5764193e-13
00000000: 6fdf 97bb 7f16 e4bc a09f c6bc ad9e 738a
00000010: 9b60 80ba d6f3 73bc 1e20 1cbc e643 359f
00000020: 4cfb b7bd 7410 1bbe f32c a8bc 646f 643d
00000030: cd8f 0ab9 7c62 aebb 9d87 fda4 b5a4 6c3d
00000040: 280d dcbc 11f5 f93c d4d1 72bd cfce b3bd
00000050: e96e d2af 44f5 5bbd d3e0 48b3 9c2d 1a3e
00000060: 2f42 4a3d 0ecc adbd 5f72 053e bc26 73bc
00000070: a6f2 a0bc ac72 25ba 6eaa 16bb 317d 31aa

fc_loc.0.weight f4 [32, 896]
-2.2004222e-08 -2.8573957e-09 -1.19950085e-08 -2.331758e-09 -9.655899e-10 -3.0799252e-09 -2.405897e-07 -2.1190401e-07
-5.1032645e-09 -9.097615e-08 -7.3683557e-09 -1.5235582e-08 -3.7516426e-09 -2.1595304e-12 -5.044961e-05 -3.213059e-05
-2.578639e-05 -1.1713457e-06 -1.8879351e-08 -2.6046942e-08 -5.3659015e-09 -1.9516175e-09 -1.2635724e-12 -1.8918493e-18
-9.951977e-13 -1.750085e-08 -9.7841756e-08 -2.8696114e-09 2.0661973e-12 -1.5715418e-12 5.532044e-13 1.6458075e-12
3.240942e-12 -4.7408835e-12 -3.5427113e-12 6.4803002e-12 -5.35887e-11 8.03095e-12 6.977714e-10 1.2332984e-09
-8.238012e-11 -1.3886587e-11 -1.6143282e-12 5.8862732e-12 -7.10282e-12 -4.1938976e-13 -4.0537946e-12 -6.1189816e-12
4.1861553e-12 6.838418e-12 4.8644975e-13 -1.0791256e-12 -3.174469e-13 8.246439e-13 -4.598023e-13 -2.367287e-12
0.0004945652 -0.00366898 -0.009110645 -0.0069273277 -0.0039375057 -0.007086285 -0.008984891 -0.008219881
-0.0062467405 -0.008015797 -0.011800908 -0.012836497 -0.00959129 -0.01701761 -0.0030875055 -0.0038344674
-0.0054935683 -0.0006872797 -0.0022547585 -0.0019714897 -0.0017552502 -0.0046186857 -0.0038744924 -0.004068577
-0.0034202628 -0.003980576 -0.0031748256 -0.006941065 -3.99547e-40 -3.94918e-40 3.2541e-40 1.01831e-40
4.0183e-40 9.8144e-41 8.3225e-41 9.096e-41 -1.58743e-40 2.73452e-40 -9.4546e-41 4.09742e-40
-2.21949e-40 2.56188e-40 -1.34323e-40 -3.0114e-40 -1.54879e-40 1.88157e-40 -3.6582e-40 1.38242e-40
1.0689e-40 -3.3549e-40 3.94217e-40 -1.74691e-40 -2.0579e-40 8.788e-42 2.65483e-40 -1.9685e-41
4.2950388e-10 7.863163e-10 7.452864e-09 8.313618e-10 2.2469574e-07 9.749256e-08 1.6020338e-07 7.870154e-07
1.4957751e-06 3.3535387e-06 5.8331084e-06 2.4386827e-06 4.8298983e-07 3.1824037e-08 5.1277257e-05 5.7833444e-05
5.5106302e-05 1.1540165e-05 5.999037e-07 5.602249e-09 9.4712384e-11 1.5307249e-19 1.2566857e-10 3.9677238e-07
1.3611539e-05 5.611171e-06 8.742572e-08 4.4563478e-07 -0.004804851 -0.0035763937 -0.0032835933 -0.0034023253
-0.005682801 -0.0061294804 -0.0060560885 -0.001835224 -0.0011213721 -0.0020266199 -0.0032455092 -0.003496589
-0.005551739 -0.0059451307 -0.004534524 -0.0021398251 -0.0037645109 -0.0021579224 -0.011526247 -0.0013565042
-0.0023497534 -0.0015662978 -0.0016047384 -0.0040278197 -0.0038485322 -0.0051030423 -0.0076488587 -0.008784908
-0.0032984714 0.0003519325 0.00013865287 0.0009905009 -0.00047821514 0.0012886068 0.0024619508 0.0042183315
0.0012321797 0.0018549445 0.0007796583 0.0021320023 0.0022860104 -0.00019274426 -0.003957831 -0.00040858163
0.0034424157 0.004101704 0.0027728984 0.0021807316 0.0020860431 0.0076673664 0.0032316328 0.0013121676
0.00041019186 0.0009637536 -0.00066792325 -0.0029141626 3.35268e-40 3.7478e-41 9.8408e-41 -1.32725e-40
-1.92083e-40 3.36328e-40 -5.648721e-27 -3.454e-40 -1.35333e-40 3.01254e-40 -1.99748e-40 5.4864467e-28
-8.747e-41 -8.946269e-39 1.10333e-40 5.0625e-41 7.7748e-41 5.1653e-41 -3.6779292e-29 -8.734561e-26
-5.1849397e-30 -3.40307e-40 2.24435e-40 -4.8871006e-24 7.1724e-41 -3.37297e-40 -3.76516e-40 1.11435e-40
0.0043999585 0.02358384 0.018439284 -0.0024571626 0.0018470115 -0.011280703 -0.05211261 -0.04556201
-0.040524192 -0.02773846 -0.010599614 0.015744945 -0.015611828 -0.045970067 0.011748393 -0.019935299
-0.015136303 -0.018693402 -0.02835222 -0.043027557 -0.04998559 -0.061147932 -0.08105703 -0.07357039
-0.041150384 -0.04836821 -0.05907126 -0.0055142622 -0.25052848 -0.27434355 -0.2425106 -0.12648329
00000000: cc03 bdb2 d65b 44b1 9b12 4eb2 b83c 20b1
00000010: adb5 84b0 9ea6 53b1 662a 81b4 bb87 63b4
00000020: ca58 afb1 ab5e c3b3 be2c fdb1 66df 82b2
00000030: cce7 80b1 a4f6 17ac db99 53b8 f5c3 06b8
00000040: da4f d8b7 2237 9db5 222c a2b2 d5bd dfb2
00000050: f85e b8b1 381d 06b1 fed4 b1ab 0698 0ba2
00000060: c70f 8cab c754 96b2 131d d2b3 bd32 45b1
00000070: 4d65 112c c32c ddab 94b6 1b2b 77a0 e72b
00000080: 9f0f 642c 15ce a6ac d04b 79ac 5b01 e42c
00000090: 83af 6bae 2f48 0d2d 4ccd 3f30 d480 a930
000000a0: e227 b5ae a14b 74ad 4e32 e3ab d61a cf2c
000000b0: 84e8 f9ac 6f18 ecaa 56a1 8eac e34a d7ac
000000c0: 8949 932c fe9a f02c 66ec 082b 99df 97ab
000000d0: ebb4 b2aa db1d 682b 3f6c 01ab 4095 26ac
000000e0: b5a5 013a 4573 70bb d144 15bc a3fe e2bb
000000f0: 3106 81bb 1134 e8bb 5d35 13bc aeac 06bc
00000100: 75b1 ccbb b054 03bc 9858 41bc 2c50 52bc
00000110: c924 1dbc 8468 8bbc bf57 4abb b04b 7bbb
00000120: 6403 b4bb 8f2a 34ba 92c4 13bb 1c34 01bb
00000130: 6c10 e6ba 5858 97bb 32eb 7dbb b351 85bb
00000140: 7d26 60bb 7e6f 82bb bc10 50bb e071 e3bb
00000150: c659 0480 df4c 0480 1c8b 0300 dd1b 0100
00000160: 2360 0400 9611 0100 ffe7 0000 8ffd 0000
00000170: 83ba 0180 46fa 0200 8e07 0180 3276 0400
00000180: b46a 0280 26ca 0200 7076 0180 7547 0380
00000190: bdaf 0180 810c 0200 c2fb 0380 5d81 0100
000001a0: f729 0100 36a7 0380 eb4a 0400 f8e6 0180
000001b0: a93d 0280 7f18 0000 0fe4 0200 e036 0080
000001c0: 4c1f ec2f 1724 5830 0b0a 0032 e385 6430
000001d0: e543 7134 1a5d d133 5f04 2c34 4943 5335
000001e0: 71c2 c835 5b0d 6136 05ba c336 40a8 2336
000001f0: cfa6 0135 e6ae 0833 8912 5738 3092 7238
00000200: f121 6738 a29c 4137 1109 2135 e77d c031
00000210: 5546 d02e 52b7 3420 8f2c 0a2f fb03 d534
00000220: 1d5d 6437 9847 bc36 ccbe bb33 943f ef34
00000230: 0372 9dbb ee61 6abb 8e31 57bb 8cf9 5ebb
00000240: ca36 babb cfd9 c8bb 2772 c6bb e68b f0ba
00000250: 01fb 92ba 0ad1 04bb 9cb2 54bb 0727 65bb
00000260: 5deb b5bb 5fcf c2bb 5896 94bb 4f3c 0cbb
00000270: 03b6 76bb ee6b 0dbb 95d8 3cbc bacc b1ba
00000280: 52fe 19bb 3c4c cdba 1656 d2ba cdfb 83bb
00000290: a837 7cbb 6c37 a7bb 47a3 fabb 93ee 0fbc
000002a0: 2b2b 58bb 9583 b839 5963 1139 b2d3 813a
000002b0: f3b8 fab9 78e6 a83a ae58 213b ee39 8a3b
000002c0: 1781 a13a 9c21 f33a fc61 4c3a 10b9 0b3b
000002d0: e4d0 153b 651b 4ab9 b1b0 81bb e636 d6b9
000002e0: 279a 613b 9667 863b 84b9 353b 9bea 0e3b
000002f0: ffb5 083b 883e fb3b cdc9 533b 0afd ab3a
00000300: 050f d739 69a4 7c3a 9217 2fba 89fb 3ebb
00000310: 97a6 0300 7968 0000 5212 0100 fc71 0180
00000320: 7317 0280 8ca9 0300 d6c4 df93 d6c2 0380
00000330: 4179 0180 c647 0300 d12c 0280 58df 2d12
00000340: d5f3 0080 8f6a 6180 9033 0100 1f8d 0000
00000350: bbd8 0000 fd8f 0000 407e 3a90 dc41 d895
00000360: 7e53 d28e a3b4 0380 a271 0200 800f bd98
00000370: f0c7 0000 3fac 0380 9319 0480 a336 0100
00000380: 872d 903b e632 c13c fb0d 973c 5908 21bb
00000390: 6c17 f23a b3d2 38bc 0874 55bd 3b9f 3abd
000003a0: b2fc 25bd c43b e3bc 01aa 2dbc 8bfb 803c
000003b0: c1c8 7fbc 1c4b 3cbd 557c 403c 5a4f a3bc
000003c0: 42fe 77bc e822 99bc ea42 e8bc aa3d 30bd
000003d0: b1bd 4cbd 4176 7abd 3a01 a6bd 13ac 96bd
000003e0: 4e8d 28bd bf1d 46bd b5f4 71bd fcb0 b4bb
000003f0: 4545 80be c276 8cbe b354 78be d684 01be

fc_loc.0.bias f4 [32]
0.76372397 -0.1641668 0.4881697 -0.0021746492 -0.058585327 -0.022079945 0.7720001 -3.8843784e-05
0.6657344 -4.946834e-19 -0.25054702 -1.3938171e-12 -0.31486416 0.50193065 -0.3132405 -0.16995275
0.58953696 0.7640172 0.36186525 -0.19828826 0.47940344 -2.670543e-08 -0.023911443 -0.06769281
-0.12975416 -4.5096867e-11 0.53831875 -0.30068335 -0.22608966 -1.545317e-05 -0.12620898 0.20221718
00000000: 6a83 433f 571b 28be 61f1 f93e 8f84 0ebb
00000010: 2bf7 6fbd 00e1 b4bc cca1 453f 32ec 22b8
00000020: 926d 2a3f 3901 12a1 b347 80be 8e29 c4ab
00000030: e035 a1be 877e 003f 0f61 a0be 1808 2ebe
00000040: e5eb 163f a296 433f 6746 b93e 140c 4bbe
00000050: 5e74 f53e dd65 e5b2 eee1 c3bc 87a2 8abd
00000060: 46de 04be 8f56 46ae 42cf 093f 2bf3 99be
00000070: 0c84 67be 6ea1 81b7 ed3c 01be 0512 4f3e

fc_loc.2.weight f4 [6, 32]
0.009075692 -0.0056309653 0.079733394 4.566251e-13 0.06534591 0.012216635 0.023702504 8.864155e-10
-0.087775044 -1.10396736e-32 -0.044096753 3.874202e-10 0.014093641 -0.05931523 -0.07563059 0.04800035
-0.07675342 -0.014469875 0.056233577 0.05380324 0.029918348 -2.560299e-37 0.009457286 -0.06317059
0.024269843 1.5149996e-07 -0.06963601 -0.07324975 0.031007 -0.0015938489 0.010893801 -0.05143946
0.08097757 0.03496545 0.038670253 -3.4020208e-22 0.16366619 -0.012015999 0.06292828 3.8286636e-09
-0.148549 -1.18844e-40 0.032414302 5.693781e-13 0.07892904 -0.101483434 -0.08128771 0.0783276
0.08699112 -0.04522501 -0.19610383 -0.055836465 -0.017173754 -2.9076223e-37 0.02294948 0.100147635
0.04594555 -8.819566e-11 0.1929448 0.050276797 0.047912158 -0.00030625088 0.07895592 -0.15325297
-0.0017290215 -0.0020482638 0.07889279 1.7342421e-07 -0.008070675 0.027220923 0.027118288 7.1086695e-05
0.025706472 -8.4616e-41 0.059131708 2.0876833e-07 0.10430795 -0.079176284 -0.0028776636 -0.06530776
0.013054138 -0.013685567 -0.1548266 0.047433667 0.019820437 -3.0335006e-35 0.01914705 -0.009989002
0.0018560647 -0.0007206125 0.076925114 0.011818569 -0.034899715 -0.00501423 -0.015916722 0.020076953
-0.0144380005 -0.04189138 -0.16499914 -3.37353e-40 0.032322958 0.00012082813 -0.3086514 4.4948516e-33
0.07038994 3.71627e-40 -0.20565586 1.6045812e-36 -0.22122687 0.1165699 -0.100922674 -0.096836306
-0.27002636 0.24580175 0.10716676 0.099421 0.12867825 -2.2057728e-38 -1.4513427e-08 -0.11277943
-0.006734504 -1.238981e-18 -0.105992146 -0.009151501 0.19476086 -6.89972e-15 0.0843742 0.07496831
-0.05022904 0.121945724 -0.02684463 2.52323e-40 -0.09843301 1.3745367e-05 0.099692404 1.7756049e-23
-0.06832854 -1.21661e-40 0.015789308 -2.9347453e-27 -0.09194365 -0.014445522 0.021770276 -0.014832479
-0.11287063 -0.14007927 -0.017787624 0.14011216 0.07017535 -1.421191e-37 3.305769e-09 -0.037910458
-0.1315475 -1.2309428e-28 0.059333187 0.023596838 0.07577434 -1.0722848e-10 0.08634292 0.19974762
0.027272044 -0.032221243 0.051185336 2.027461e-36 -0.070200115 -0.00851852 -0.019523583 -3.6178163e-19
-0.026966814 -2.60735e-40 0.06397199 4.9806274e-15 -0.081542075 -0.03347304 -0.020458246 -0.024437735
-0.065539375 0.033463582 -0.0155872945 0.020740397 0.043253403 1.8421365e-37 0.001973353 0.03703877
-0.1501337 -7.751933e-16 -0.037032153 -0.015253247 0.03825101 -2.6939066e-17 0.08275546 -0.05192225
00000000: 36b2 143c f683 b8bb 434b a33d 4e87 002b
00000010: 14d4 853d 4828 483c c12b c23c f2a7 7330
00000020: 67c3 b3bd f948 658a cc9e 34bd 8cfc d42f
00000030: 04e9 663c 87f4 72bd 36e4 9abd 049c 443d
00000040: e630 9dbd 0e13 6dbc 2e55 663d c960 5c3d
00000050: 5317 f53c b33e ae82 bcf2 1a3c 955f 81bd
00000060: 8dd1 c63c feab 2234 539d 8ebd f703 96bd
00000070: 6402 fe3c b2e8 d0ba ea7b 323c 2fb2 52bd
00000080: 91d7 a53d ef37 0f3d b364 1e3d b9a3 cd9b
00000090: 1c98 273e c1de 44bc 8be0 803d 488d 8331
000000a0: 3b1d 18be 4a4b 0180 dcc4 043d 0444 202b
000000b0: 8ca5 a13d 8cd6 cfbd 2c7a a6bd 396a a03d
000000c0: 6628 b23d dc3d 39bd 71cf 48be c7b4 64bd
000000d0: f9af 8cbc ede1 c582 8c00 bc3c 341a cd3d
000000e0: 6731 3c3d bef1 c1ae 5293 453e 0bef 4d3d
000000f0: 8a3f 443d 4c90 a0b9 a4b3 a13d 59ee 1cbe
00000100: 56a0 e2ba 2a3c 06bb 8b92 a13d 7c36 3a34
00000110: dd3a 04bc 6afe de3c 2c27 de3c 6114 9538
00000120: 6196 d23c e0eb 0080 1734 723d cd29 6034
00000130: 689f d53d 2d27 a2bd 2f97 3cbb 13c0 85bd
00000140: 06e1 553c 6e39 60bc dd8a 1ebe ce49 423d
00000150: 785e a23c df49 2186 46da 9c3c e9a8 23bc
00000160: 3247 f33a 7ce7 3cba ea8a 9d3d aca2 413c
00000170: 01f3 0ebd 694e a4bb c963 82bc 6c78 a43c
00000180: 5d8d 6cbc 4c96 2bbd 89f5 28be 67ac 0380
00000190: 1465 043d 1c65 fd38 8e07 9ebe 76b5 ba09
000001a0: 9a28 903d f20b 0400 7397 52be af80 0804
000001b0: 4c89 62be 33bc ee3d 8cb0 cebd 1d52 c6bd
000001c0: e540 8abe 74b3 7b3e 3f7a db3d 3d9d cb3d
000001d0: 3bc4 033e f92f f080 ba56 79b2 e7f8 e6bd
000001e0: 1dad dcbb 61d7 b6a1 6912 d9bd 2df0 15bc
000001f0: 646f 473e af96 f8a7 61cc ac3d fc88 993d
00000200: f7bc 4dbd aebe f93d 45e9 dbbc 60bf 0200
00000210: 3f97 c9bd e79b 6637 882b cc3d d9b9 ab19
00000220: d5ef 8bbd 2453 0180 9458 813c b583 6893
00000230: f44c bcbd e9ac 6cbc 9457 b23c ed03 73bc
00000240: b828 e7bd f170 0fbe 5ab7 91bc 9079 0f3e
00000250: 18b8 8f3d 4771 4182 b42b 6331 ff47 1bbd
00000260: 63b4 06be 610a 1c91 5b07 733d 284e c13c
00000270: 942f 9b3d 45cc ebae 8fd4 b03d a48a 4c3e
00000280: 9f69 df3c 6cfa 03bd b7a7 513d 317a 2c04
00000290: 14c5 8fbd 4391 0bbc ecef 9fbc e58e d5a0
000002a0: 82e9 dcbc d3d6 0280 bf03 833d 2e72 b327
000002b0: 88ff a6bd 071b 09bd 0d98 a7bc a531 c8bc
000002c0: 8239 86bd 1c11 093d da61 7fbc c4e7 a93c
000002d0: 7b2a 313d 17bd 7a02 5f53 013b f7b5 173d
000002e0: a6bc 19be 2b6f 5fa6 07af 17bd c1e8 79bc
000002f0: 17ad 1c3d 1278 f8a3 b27b a93d 6dac 54bd

fc_loc.2.bias f4 [6]
1.0959222 -0.057808068 0.07144633 0.12673794 0.76255155 0.110268824
00000000: 2e47 8c3f 27c8 6cbd 7452 923d 97c7 013e
00000010: 9436 433f 9fd4 e13d
